…
e78ca","executionInfo":{"status":"ok","timestamp":1571940299197,"user_tz":420,"elapsed":344,"user":{"displayName":"Derek Tolbert","photoUrl":"","userId":"08552146707136211425"}},"colab":{"base_uri":"https://localhost:8080/","height":920}},"source":["model.summary()"],"execution_count":18,"outputs":[{"output_type":"stream","text":["Model: \"sequential_3\"\n","_________________________________________________________________\n","Layer (type)                 Output Shape              Param #   \n","=================================================================\n","block1_conv1 (Conv2D)        (None, 150, 150, 64)      1792      \n","_________________________________________________________________\n","block1_conv2 (Conv2D)        (None, 150, 150, 64)      36928     \n","_________________________________________________________________\n","block1_pool (MaxPooling2D)   (None, 75, 75, 64)        0         \n","_________________________________________________________________\n","block2_conv1 (Conv2D)        (None, 75, 75, 128)       73856     \n","_________________________________________________________________\n","block2_conv2 (Conv2D)        (None, 75, 75, 128)       147584    \n","_________________________________________________________________\n","block2_pool (MaxPooling2D)   (None, 37, 37, 128)       0         \n","_________________________________________________________________\n","block3_conv1 (Conv2D)        (None, 37, 37, 256)       295168    \n","_________________________________________________________________\n","block3_conv2 (Conv2D)        (None, 37, 37, 256)       590080    \n","_________________________________________________________________\n","block3_conv3 (Conv2D)        (None, 37, 37, 256)       590080    \n","_________________________________________________________________\n","block3_pool (MaxPooling2D)   (None, 18, 18, 256)       0         \n","_________________________________________________________________\n","block4_conv1 (Conv2D)        (None, 18, 18, 512)       1180160   \n","_________________________________________________________________\n","block4_conv2 (Conv2D)        (None, 18, 18, 512)       2359808   \n","_________________________________________________________________\n","block4_conv3 (Conv2D)        (None, 18, 18, 512)       2359808   \n","_________________________________________________________________\n","block4_pool (MaxPooling2D)   (None, 9, 9, 512)         0         \n","_________________________________________________________________\n","block5_conv1 (Conv2D)        (None, 9, 9, 512)         2359808   \n","_________________________________________________________________\n","block5_conv2 (Conv2D)        (None, 9, 9, 512)         2359808   \n","_________________________________________________________________\n","block5_conv3 (Conv2D)        (None, 9, 9, 512)         2359808   \n","_________________________________________________________________\n","max_pooling2d_4 (MaxPooling2 (None, 4, 4, 512)         0         \n","_________________________________________________________________\n","flatten_3 (Flatten)          (None, 8192)              0         \n","_________________________________________________________________\n","dense_7 (Dense)              (None, 1024)              8389632   \n","_________________________________________________________________\n","dense_8 (Dense)              (None, 1024)              1049600   \n","_________________________________________________________________\n","dense_9 (Dense)              (None, 3)                 3075      \n","=================================================================\n","Total params: 24,156,995\n","Trainable params: 9,442,307\n","Non-trainable params: 14,714,688\n","_________________________________________________________________\n"],"name":"stdout"}]},{"cell_type":"code","metadata":{"id":"ZOPk8aWH3bb-","colab_type":"code","outputId":"fdae53af-8dcc-4e55-a202-bdcba5269ee6","execution
…
